app/data.pth (torch, 5546 bytes, 6 tensors)

l1.weight f4 [8, 55]
000000 12 27 08 3f c6 04 44 be b6 ca c8 be 79 87 ec be
       0.53184617 -0.19142446 -0.39217156 -0.46197107
000010 0a 31 09 3f c0 54 ff 3e 13 69 79 3d 27 13 a8 be
       0.5359045 0.49869347 0.060891222 -0.32827112
000020 c6 c7 f6 3e 44 23 29 bd 0e 28 9d be 0d 02 38 3f
       0.4819929 -0.041293398 -0.30694622 0.7187813
000030 52 fd 7e 3e ba c3 14 3f dc db 14 bf 92 6c e4 3e
       0.24901322 0.58111155 -0.5814798 0.44614083
000040 43 7a 8b 3c 6a 9b 8c 3d 06 c7 f2 3e 7e 06 3f be
       0.017026072 0.068655804 0.47417468 -0.1865482
000050 52 fc 86 3d 9a 2d e8 bd ef af fc be c0 3d be 3e
       0.06591095 -0.11336823 -0.49352977 0.37156487
000060 5e b3 fc be 7f ad fc be 17 57 cb be 96 ba af be
       -0.49355596 -0.49351117 -0.39714882 -0.3432204
000070 5d c1 52 3e a5 14 9f be f1 61 c8 be 33 a4 d9 3e
       0.20581575 -0.31070438 -0.39137223 0.42508087
000080 fa 7d 37 3f c9 90 15 be ce 05 32 be ac cd ca 3e
       0.716766 -0.14606012 -0.17385027 0.3961004
000090 77 90 57 3d b6 4f 90 be 16 c7 26 3f 71 5f 34 be
       0.052628007 -0.28185815 0.6514753 -0.17614533
0000a0 b2 4b da 3e 4d fa 61 be f6 7e 46 3f 95 d4 fb 3b
       0.42635876 -0.22068138 0.77537477 0.007685254
0000b0 f2 a1 f2 3e 76 46 3e be 2b 85 44 3f ad cf a8 3e
       0.4738918 -0.18581566 0.767657 0.32970944
0000c0 0e a4 95 be 19 9e 1c be 6a 1f 15 3f 2b 12 85 3f
       -0.29226726 -0.15294684 0.5825106 1.039617
0000d0 05 38 1b 3f 30 16 14 3f 09 26 13 3f ef 6a 02 3f
       0.60632354 0.57846355 0.5747991 0.5094442
0000e0 e2 2c e4 3d 96 f0 71 3e 2b 42 2e be b6 a6 61 bd
       0.11141373 0.23626933 -0.17017429 -0.05509063
0000f0 f1 ce cb bd 1c 05 f0 be 07 ea 47 3d 2e 71 21 3e
       -0.0995158 -0.46878898 0.04880717 0.15765831
000100 46 d9 b7 bd c5 4d 08 3e 7a 2c dd 3d 44 46 28 be
       -0.089769885 0.13310917 0.10799499 -0.16433054
000110 45 64 79 3d bb 4c eb be 24 b3 98 be ee 2c 8c bd
       0.06088664 -0.45956978 -0.29824173 -0.06844507
000120 94 b4 e1 3d 9c 5d 3a bd a6 91 b6 3e 20 0b f0 be
       0.11020771 -0.04549943 0.35657996 -0.46883488
000130 e7 03 36 be 7c fe ab 3e 03 48 01 3f 9b 36 bc 3e
       -0.17774926 0.33592594 0.50500506 0.3676041
000140 45 a6 8e 3e d9 a2 1b 3f 91 80 6a 3d 60 20 d7 3d
       0.2786123 0.6079536 0.057251517 0.10504222
000150 8b 32 98 be d4 c4 47 be 8a 6f 72 3e c8 e8 25 3d
       -0.2972606 -0.19508678 0.23675361 0.0405052
000160 37 13 8f be 52 26 ed bd b6 e7 c0 3e 4d 10 71 3e
       -0.27944347 -0.11579575 0.3767678 0.23541375
000170 8c bb 6a be 9d d7 13 3e f1 21 89 be e7 64 53 bc
       -0.22923106 0.14437719 -0.26783708 -0.012902475
000180 14 c7 b8 be 11 00 a1 3e 07 44 fb 3c c5 16 a9 3e
       -0.36089385 0.31445363 0.030672086 0.33025184
000190 fe 7c bb bb cb 10 4e 3f 4a 9c ac 3e 56 e8 9f 3e
       -0.0057216873 0.80494374 0.3371299 0.31231946
0001a0 d8 35 85 be f7 e9 a6 bb 8e 9d 93 3e 1e 2b d3 3e
       -0.26017642 -0.0050938088 0.28831142 0.41243833
0001b0 19 97 2f 3e 17 09 0a bb b5 cc ba 3e e7 31 01 3f
       0.17147483 -0.0021062547 0.36484304 0.5046677
0001c0 07 9c c0 3e 1c 43 e1 3e ef 29 06 be b6 c6 29 be
       0.3761904 0.43996513 -0.13101934 -0.16579708
0001d0 94 d0 28 bf cf ef cf 3d da a4 8a be c1 71 32 be
       -0.65943265 0.10153162 -0.27078897 -0.17426206
0001e0 76 77 fd 3e 94 9d 28 bd ff 64 b3 bc 1f aa 90 be
       0.49505204 -0.041165903 -0.021898745 -0.28254792
0001f0 55 92 5e bc 22 97 96 bc 84 e1 4b 3c 4b e5 90 3e
       -0.013584693 -0.018382613 0.012443904 0.28299937
000200 8a 8d 9f 3c 90 e9 05 3f ef 1f 29 bf 20 fe 1c 3e
       0.01947667 0.52309513 -0.6606435 0.15331316
000210 43 84 2d 3f 77 f2 54 3e 00 c0 43 3f f9 75 08 3f
       0.6777994 0.20795618 0.76464844 0.5330501
000220 54 7e 25 3f f7 87 9e 3e 6e 50 59 3e 5e 49 aa 3b
       0.64645886 0.30963108 0.21222088 0.0051967343
000230 0a 6c 9c 3e d1 a4 24 bd bc b6 a9 be ad d4 d4 be
       0.30551177 -0.040196244 -0.33147228 -0.4156851
000240 ff f3 b8 bd 79 bd 81 3e 11 bb 4b 3e cc ab 15 3e
       -0.090309136 0.2533987 0.19895579 0.14616317
000250 fa 7e 22 be 68 c6 a0 3e 13 b7 99 bd 2a ed 36 be
       -0.1586875 0.31401372 -0.07505622 -0.17863908
000260 44 fa 59 be 19 0e a6 3e 59 a3 a8 be eb 9d 34 3e
       -0.21286875 0.3243263 -0.32937124 0.17638366
000270 1f 3b 09 3e e0 cf 62 3e 5f 7c e3 3e 05 8b ae 3e
       0.13401459 0.2214961 0.44430825 0.34090438
000280 21 c1 68 be 27 e8 ce be 48 91 6b be 01 36 a0 bd
       -0.22729923 -0.40411493 -0.23004639 -0.078228004
000290 a2 1e e4 3d ac 3c 1a 3f 15 fa 8a 3e 98 17 ba 3c
       0.11138655 0.6024883 0.27143922 0.022716329
0002a0 54 50 3a be 38 11 28 bd b8 81 e4 bd 11 8c b7 be
       -0.18194705 -0.041032046 -0.111575544 -0.3584905
0002b0 1f cd 34 bd 3c ec b7 bc af 2e 28 be 52 d9 af 3d
       -0.04414093 -0.022451513 -0.16424058 0.085863724
0002c0 5a 9a 3c be 64 2c f7 bd 5a 75 b4 bd f5 a7 83 be
       -0.18418255 -0.12069014 -0.088114455 -0.2571408
0002d0 68 d6 9a bd 9e b4 4b 3d dc b8 d0 bd 55 c6 d3 bd
       -0.07560426 0.049732797 -0.10191509 -0.10340563
0002e0 17 b1 15 3e f3 71 b7 be 84 fa 80 be 9f d5 4b 3e
       0.14618336 -0.35829124 -0.25191128 0.19905709
0002f0 63 60 1c 3f 9c e0 25 3e 84 18 16 3e 99 1a 89 3e
       0.61084574 0.16198963 0.1465779 0.26778105
000300 e5 36 35 3d e4 1a 0c 3d 1a b5 83 be 41 17 b8 be
       0.044241805 0.034205332 -0.25724107 -0.3595524
000310 fe 90 6a be ef 99 06 be b6 31 7e be d8 06 25 be
       -0.22906873 -0.13144659 -0.2482365 -0.16115892
000320 1a 4f e8 3e ec e8 e3 bd 2d 3a 79 bd 52 31 f2 bd
       0.4537285 -0.11128411 -0.060846496 -0.11825813
000330 d3 c6 6f bd 80 0f 05 be 59 8a 41 be 64 58 06 be
       -0.058539223 -0.12994194 -0.18900432 -0.13119656
000340 10 eb 49 3c 34 b8 f2 bd a3 c9 22 be 9d 5b 92 3f
       0.01232411 -0.1185154 -0.15897231 1.1434208
000350 f2 f1 eb 3e 01 7e 20 3d d1 72 1f be f7 82 88 bd
       0.46083027 0.039182667 -0.15571143 -0.066656046
000360 36 55 aa bd 8f 5e 09 be 2e bb a1 3d 68 b5 e3 bd
       -0.08317034 -0.13414977 0.0789703 -0.11118585
000370 86 bd da 3e 91 c9 e9 3d d7 89 17 3e e0 df 0f 3f
       0.4272272 0.11415399 0.14798675 0.5620098
000380 60 f2 8f be 38 a3 b5 be ed 72 0c bf 28 8b 01 3f
       -0.28114605 -0.3547609 -0.5486286 0.5060296
000390 09 f0 08 3c 35 62 53 3e fa 4b d2 3e 80 c1 f8 be
       0.00835801 0.20642932 0.4107359 -0.4858513
0003a0 ab 8d 92 3e 3e ac ac be 57 f5 17 3f 68 91 38 3f
       0.2862371 -0.3372516 0.59358734 0.7209687
0003b0 29 7d 9c 3e 8c 3e 0e be 80 6e 86 be 91 68 9e 3e
       0.3056424 -0.13891047 -0.2625618 0.30939153
0003c0 99 1c 0c bf 21 20 f6 3e a4 3f ed 3e bc 25 a8 3e
       -0.54731137 0.48071387 0.46337616 0.3284129
0003d0 15 2f c4 3e 8b df d8 3e ba 5d b9 be 21 41 1a 3f
       0.3831717 0.4235805 -0.3620432 0.6025563
0003e0 4b 3a 2e 3c f0 83 fd 3e bd aa 10 bf 48 45 87 be
       0.010634015 0.49514723 -0.56510526 -0.26420045
0003f0 75 af 25 3f 6a f5 20 bf 2a 36 9d 3e f5 b4 c1 3e
       0.6472085 -0.6287447 0.30705386 0.37833372

l1.bias f4 [8]
000000 53 ad fc 3e a4 0a f0 3e b1 2b 60 3f 6f 6c b7 3e
       0.49350986 0.46883118 0.8756667 0.35824916
000010 df 73 0c 3f 1e 7e 40 3f 5a 3b c1 3e e5 a9 71 3f
       0.54864305 0.7519244 0.37740594 0.94399863

l2.weight f4 [8, 8]
000000 63 92 b0 be 06 ad 85 bf 77 ff bf 3e 5c 16 b1 bf
       -0.34486684 -1.0443428 0.37499592 -1.3834949
000010 08 9d 79 3f 8e 9f 1f bf ec e8 9c 3f 7f 8e 80 3e
       0.97505236 -0.62352836 1.2258582 0.25108716
000020 44 8e 46 3f b5 e6 51 be 1a 94 38 3e 11 d1 94 bf
       0.7756083 -0.20498164 0.18025246 -1.1626302
000030 7c 49 96 bd 1e 78 1a 3f 0a 75 9f bf 45 a0 b1 3f
       -0.07338235 0.60339534 -1.2457592 1.3877035
000040 24 b2 b2 3f a8 bd 83 3f 05 02 0d bf aa a4 5d 3f
       1.3960614 1.0292253 -0.55081207 0.8657938
000050 37 b5 05 3f 4b 72 2d be 88 05 d8 bd e9 5c 66 be
       0.52229637 -0.1693813 -0.1054793 -0.2249638
000060 4b 54 2e bf 12 60 00 bf 7a 1f 49 3f 0b 9b 47 bf
       -0.6809737 -0.5014659 0.78563654 -0.7797095
000070 3b c7 67 3f d8 00 a5 bb da 83 96 be b9 0e 9f 3f
       0.90538377 -0.005035501 -0.2939747 1.2426368
000080 fc 56 70 bc ca 25 36 3d 9b 5b 8e bd cf eb 74 be
       -0.014669176 0.044469632 -0.06951066 -0.23918079
000090 6c 3d 91 bd 8c ed 2c 3d b9 c8 28 3d fb e3 9f be
       -0.070917934 0.04221873 0.04120705 -0.31228623
0000a0 2d 33 4e be 99 24 8a 3f 5e 28 8e 3f 36 37 b2 3f
       -0.2013671 1.0792419 1.1106069 1.3923099
0000b0 45 ea a4 3f 4d 5f 28 be c6 2a a3 be 4f 38 9f 3d
       1.2883993 -0.16442604 -0.3186857 0.07774412
0000c0 76 eb ca be 5c 36 6b bf 9a af 82 3d 8a f9 0a bf
       -0.39632767 -0.9187982 0.063811496 -0.54287016
0000d0 a6 eb 69 3f f0 b1 1c bf 97 e4 07 3f 6b 51 5b 3e
       0.91375196 -0.6120901 0.53083175 0.21417777
0000e0 75 bb 19 3e 0e 00 77 3f 2e f9 8d 3f 0d 00 b0 be
       0.15012915 0.9648446 1.1091669 -0.3437504
0000f0 99 db 99 be 25 09 c1 3f d6 89 89 3f b0 4f 20 bf
       -0.30050352 1.5080916 1.0745189 -0.62621593

l2.bias f4 [8]
000000 2e 63 06 3e 18 7b 8a 3f e1 84 a0 bd b6 8b d4 3e
       0.13123772 1.0818815 -0.07837845 0.4151284
000010 b3 88 31 be 6a 16 15 be 2a d3 39 3e 30 31 e5 3e
       -0.17337303 -0.14559332 0.18146959 0.4476409

l3.weight f4 [8, 8]
000000 93 71 52 3f ca 1f ae bf fa ad 93 bf 5b 7d a7 3e
       0.8220455 -1.3603451 -1.1537468 0.32712826
000010 1b e5 99 3e 04 76 73 be f3 c4 3b 3f 47 52 90 be
       0.30057606 -0.23775488 0.73347396 -0.28187773
000020 77 73 92 3e 55 3e 7c bf 64 cb b4 be 10 75 8c bf
       0.28603718 -0.9853261 -0.35311425 -1.0973225
000030 b9 2f 02 be 69 f0 fa be f7 79 35 bf b2 e6 68 3f
       -0.12713517 -0.49011543 -0.7088923 0.90977013
000040 08 31 ae bf b8 44 9d 3f 86 97 ba bf 60 bb 1d 3f
       -1.3608713 1.2286596 -1.4577491 0.61614037
000050 0c 68 20 3d 47 b0 b3 bf 6e 8d 90 bf 62 15 48 bf
       0.039161727 -1.403817 -1.1293161 -0.7815763
000060 44 f0 7f bf 37 27 98 bd 58 a1 a8 bf b0 9f f8 3e
       -0.9997599 -0.07429355 -1.3174238 0.48559332
000070 c6 5c f7 3c 07 a7 40 3f 6f 8c c0 bf 67 2f 5f 3e
       0.030195605 0.75254864 -1.5042857 0.21795426
000080 d0 a4 ae 3e ff 85 fa ba 2d 99 ef be 22 5a 11 3f
       0.34110117 -0.001911342 -0.4679655 0.56778157
000090 1f e0 a4 be 02 06 18 3e 30 9b 62 bd 5a 46 c8 bf
       -0.3220224 0.14846042 -0.05532378 -1.564647
0000a0 c9 61 5f bf 85 69 d8 3e 23 ac 65 3e 52 e8 ad bf
       -0.87258583 0.42268005 0.22428946 -1.3586524
0000b0 9c 8a bb 3d 96 13 be bf 04 25 24 bf 5d df d8 3e
       0.09157297 -1.4849727 -0.6411898 0.42357913
0000c0 cc 73 74 bf f0 71 ed 3e 65 93 15 3f 32 03 74 be
       -0.9548919 0.4637599 0.5842803 -0.23829344
0000d0 25 65 92 3e ad 12 0a 3e 49 26 b0 bf 99 46 d5 bf
       0.28592792 0.13483687 -1.3761684 -1.666217
0000e0 9a 0e 81 bf 3b 4b 8c bf f0 92 fa 3e 3a 73 ac bf
       -1.0082581 -1.0960459 0.4894023 -1.3472664
0000f0 df 1d 07 be b3 0b 46 3f 24 65 fe be aa 93 08 3e
       -0.13194989 0.773616 -0.4968654 0.1333758

l3.bias f4 [8]
000000 35 60 76 bd 24 82 9e 3e 39 a3 fd 3e e4 88 91 be
       -0.060150344 0.30958664 0.49538592 -0.28424752
000010 e6 ff fd bd 5d 17 b1 3d 72 50 94 be db a7 04 be
       -0.124023244 0.08647034 -0.28967625 -0.12954657
